PythonApplication1/cifar_net.pth (torch, 251711 bytes, 10 tensors)

layer.0.weight f4 [6, 3, 5, 5]
00000000: b7ce 8ebd 245d febd 772c b0bd 093e 8abe
00000010: 2811 45be b472 6bbd 1870 6f3c b709 b03d
00000020: 8afd c73d 0810 8bbc ebfd 3c3e 6a67 b23e
00000030: 9951 d73e 17c8 c23e f1fc 963e 2a99 6d3c
00000040: 1a81 173e 277d bb3e febe e73e 4481 903e
00000050: aafc 9fbc c870 1c3d cbb4 f43d 6818 d83d
00000060: 1ad6 dd3d cc67 f6bd 344d 59be bd3b 8abe
00000070: c416 6ebd 517f a33c 9eb4 40be 723c 08be
00000080: 7b2a d0bd a33f edbd f342 93bd 8ddc 3b3d
00000090: 9c2d 00be 89ef 10bd 8480 2fbe b9b5 ebbd
000000a0: 8f32 8abd b89b bc3c a335 c4bd 75ae 2ebe
000000b0: eec3 87be 101a e83d 864c f03d 570f 07bd
000000c0: 4a7e d7bd 174f 07be aacb 2bbd 84b5 42bd
000000d0: c041 8d3c a567 603e 4f56 8f3e 1eeb e8ba
000000e0: 18a6 3abd 8b2d b5bd 84bf 223d bc5a 153e
000000f0: 2383 93bd b2a7 19bd 68a1 5dbe e881 00be
00000100: 36c1 8abd 7a75 413e 3b5a 7b3c 9798 ccbd
00000110: 3f9d 81be ecb3 31be d80e 8e3e 7f8d 3a3e
00000120: d4d9 fdbb 4fc8 efbd daf7 72be 1776 75bb
00000130: b6ec 8f3d 5351 0f3c 9c14 333e 1a84 7d3d
00000140: 1218 b6bc bd14 f13d 3eae 15bd b9f7 af3d
00000150: 0ac3 203d 1b2a 443e e2ab c33e 63c0 9cbe
00000160: 514b 58be 0ada 7b3e 9b30 813e 4880 d63e
00000170: 1ca2 babe 25a8 d7be a957 af3e 9e60 5e3e
00000180: fc32 e53e ef35 83be 3b00 1abe 7ad8 663e
00000190: 85be 353d eab3 b9bc 9465 bdbd 3c54 3a3d
000001a0: 25ad 46be 93dc c23d 5c98 9bbb feb6 77be
000001b0: 8bcf 86bd 6e58 35bd a12f 433d 20df 9b3e
000001c0: 8238 04bf 4393 d6be 45b1 823e b311 033e
000001d0: 7f80 983e 4c90 05bf 3c3c 0bbf ddd2 a83e
000001e0: 5c0f 2f3d 3e4c 283e 9d18 afbe 5a0b a5be
000001f0: d607 bc3d c30f 86bd 5bca 5737 e9a9 a1bd
00000200: f413 a93d 2d6e 8fbe da71 223e 2d5f 3b3e
00000210: ab41 2abe f74b 0bbe 4c48 6dbd 370c 143e
00000220: 0512 e93e b955 bfbe a149 62be 5d17 0b3e
00000230: b1bf 1b3e 31af 0b3f 2cf6 d9be d57a f9be
00000240: b64e bb3e 53b4 3d3e a80c b53e fd47 a5be
00000250: c42f c3be 1100 473e 9f6a 2e3c 10f0 d2bb
00000260: e92f d63d 7f88 7bbd 8288 69be 97e7 86bd
00000270: 6f2c f6bd 9dec 36be a415 8cbe ff8c 303e
00000280: fa33 623d 238d b53b 30d8 10bf 3ddb 9dbe
00000290: 9517 fe3e 550a 92bd 372a 2b3e 9ec5 653e
000002a0: c153 0b3e 8f0f 34be 3710 cf3d e22c e03c
000002b0: 6c87 053f 8849 003f 7c94 86be 8c6b 823b
000002c0: 87a9 bcbd cdb1 a93d db08 7f3d 9a27 65be
000002d0: 4553 47bd ed34 243d 3a7e e4bd 8a91 53be
000002e0: 91a5 8d3e d4c7 0c3e 3002 07be 5aac d9be
000002f0: 1a7f afbe 5f3d e63e 6a52 d93c b988 2d3c
00000300: a62c 893e 3410 443e bf3a 93be 83c0 f1bd
00000310: 33a5 66bd a078 893e 2ab3 af3e aa60 fdbe
00000320: bd1a 513c 160e 51be 0d43 873d 2296 e33d
00000330: 24f4 9dbe 60a3 75bd 8259 a63d 7fbd 76be
00000340: dd5f 94be f389 a93e 4bfa 443e b251 0abe
00000350: 8e11 0dbf 72a8 7bbe 4d81 a73e 5b13 26be
00000360: a4d3 243e 417a 613e 3e6b 383d 39cc dabd
00000370: ebfc 513b fd19 f93c cf4d e13e 8d07 cb3e
00000380: 08b4 38be 0877 023d b931 0cbe f59b 44be
00000390: 2b6c 203c 1307 d63d 5fdf adbd 97da fc3c
000003a0: 4eec dfbd 74cf 53be d02b 0ebe fc0a b1bc
000003b0: e1b2 973c 9eab 0abe 4dc0 093c 0f6f c9bd
000003c0: fef2 8dbd ed77 e1bd 59bf e5bd d65c 72bd
000003d0: abe0 f0bd d8ef d3bd 205d d1bc 6179 87bd
000003e0: f967 8cbb 9f8a 08bc cc36 b6bd 97d5 25be
000003f0: dba3 84be ae13 e6bd 901e 313d 1d0b 9a3b
-0.069730215 -0.12420109 -0.08602231 -0.27000454 -0.19244826 -0.057482436 0.014614128 0.08595603
0.097651556 -0.016975418 0.18456237 0.34844524 0.42054442 0.3804328 0.29489854 0.014501849
0.14795342 0.3661892 0.45262903 0.28223622 -0.01952966 0.038193494 0.11948546 0.1055153
0.10831852 -0.120315164 -0.21220857 -0.26998702 -0.05812718 0.01995817 -0.188189 -0.13304308
-0.101643525 -0.11584403 -0.07190504 0.04586463 -0.12517399 -0.03538469 -0.17138869 -0.1150927
-0.067479245 0.023023471 -0.09580543 -0.17058738 -0.2651667 0.11333096 0.11733346 -0.032973614
-0.105221346 -0.13213764 -0.041942276 -0.047536388 0.017243266 0.21914537 0.27995536 -0.0017770266
-0.045568556 -0.08846577 0.039733425 0.14585394 -0.07202747 -0.037513442 -0.21643603 -0.12549555
-0.06775133 0.1889247 0.015341337 -0.09990042 -0.25315282 -0.17353791 0.277457 0.18218039
-0.0077469144 -0.11708128 -0.2372736 -0.003745442 0.07027571 0.008747417 0.1748833 0.06189356
-0.022228274 0.11771534 -0.036543123 0.08592171 0.039248504 0.19156687 0.38217074 -0.3061553
-0.21122481 0.24594894 0.25232396 0.41894746 -0.36451805 -0.42120472 0.34246567 0.21716544
0.4476546 -0.25627086 -0.1503915 0.22543517 0.044371147 -0.022668798 -0.0924789 0.04549049
-0.19401987 0.095147274 -0.0047483873 -0.241909 -0.065825544 -0.044273786 0.047652844 0.30443668
-0.51648724 -0.41909227 0.2552587 0.1279972 0.29785535 -0.52173305 -0.54388785 0.32973376
0.042739257 0.16435334 -0.34198466 -0.32235223 0.09181182 -0.06545975 1.2862113e-05 -0.07893736
0.08255759 -0.28013745 0.15863743 0.18298025 -0.16626613 -0.13603197 -0.057930276 0.14457785
0.4552156 -0.3737009 -0.220984 0.13583131 0.15209843 0.54564196 -0.42570627 -0.48726526
0.3658349 0.1852582 0.35361218 -0.32281485 -0.3812238 0.19433619 0.010645538 -0.006437309
0.10458357 -0.06140947 -0.2280598 -0.06587141 -0.12020194 -0.17863698 -0.2736026 0.17241286
0.05522535 0.0055405064 -0.56579876 -0.30831328 0.49627367 -0.07130877 0.16715322 0.22438666
0.13606168 -0.1758406 0.101105146 0.027365152 0.5215976 0.501122 -0.2628516 0.0039801057
-0.09212022 0.08285866 0.062264305 -0.22378388 -0.048663396 0.040089536 -0.11156888 -0.20660987
0.2766538 0.13748103 -0.13184428 -0.42514306 -0.34276658 0.44968697 0.026528556 0.010591679
0.26791877 0.19146806 -0.28755757 -0.11804297 -0.05630989 0.26849842 0.3431638 -0.4948781
0.012762723 -0.2041553 0.06604586 0.1111262 -0.30850327 -0.05997026 0.08122541 -0.24095725
-0.28979388 0.3311306 0.19236104 -0.13507727 -0.5510491 -0.24575976 0.32715836 -0.16218321
0.1609636 0.22019292 0.04502415 -0.10683484 0.003204162 0.0304079 0.44004676 0.39654198
-0.18037426 0.0318518 -0.13690843 -0.19200118 0.009791414 0.10450568 -0.0848987 0.03086595
-0.109337434 -0.20684606 -0.138839 -0.021611683 0.018517913 -0.1354203 0.0084076645 -0.09835636
-0.06931113 -0.11009202 -0.11218137 -0.059170566 -0.11761602 -0.10348481 -0.0255571 -0.06614948
-0.0042848554 -0.008333831 -0.088971704 -0.1619476 -0.25906262 -0.11234222 0.043242037 0.004701032

layer.0.bias f4 [6]
00000000: e222 77be 517b 363e 5a83 863e 35c8 2f3f
00000010: 57cd 27be 635e cb3e
-0.241344 0.17820479 0.26272088 0.68664867 -0.16386925 0.3972045

layer.3.weight f4 [16, 6, 5, 5]
00000000: e0da 9f3c bc40 5b3b dee3 52bd e658 443c
00000010: c530 ac3b c382 99bc ed83 3bbd 261e 7dbd
00000020: 5499 173d 13f1 fa3d b5e8 503b ec22 92bc
00000030: 159a 91bb 3a35 683d 7b3d 093d 8d14 00be
00000040: ed57 46bd 6ff0 babd 32ed 1abe 95e3 01be
00000050: 5c0e a5bd fccb 313d 9669 d0bd f6ac a5bd
00000060: 6403 90bd b787 13bc 1a31 103e 9677 8abd
00000070: f63e 44be 5662 8ebe 5d8f 413e cc69 953e
00000080: 0512 0c3e 8bd5 f9bd 2495 55be 269d 393e
00000090: 88ec 4d3e 13a6 643d 5ace 86bd 04e7 52be
000000a0: 31b3 303e 91bd 9f3d f663 a03d 8232 ffbd
000000b0: 826c 4cbe bc1e 593e 4e32 b43d 8cf2 153e
000000c0: fd17 6c3d bbb0 223b f201 85bc 3079 9ebd
000000d0: c917 1f3e 6f95 883e eab8 483e a285 ba3a
000000e0: 3686 bd3d b4f6 c83d 0d2a 063e c72e 0e3d
000000f0: 5e27 38be f15c c3bc adea 84bd bd37 2fbe
00000100: 32ec 77be ce26 72be e18c 64bd b038 e6bd
00000110: e313 65be 4dd3 99be c82e 1ebe 805d 6dbd
00000120: 27d1 bebd 707a 48bd 5237 76bd 152a 3c3e
00000130: 1836 613c 2a47 a1bc 67da 5b3d 2b27 543e
00000140: 0bf7 de3d 0cf8 85bd 2a63 acbd b911 95bd
00000150: 6b14 ba3d ced3 0d3c 64cb b8bd 17ba 30be
00000160: d39b 0abe e66f 2ebc 26f0 923d 2775 81bd
00000170: 042d 0ebd 001e 25be 9b66 e9bd e2da 02bd
00000180: 2fff 11bd 6174 93bc 31a9 a3bd c867 1cbd
00000190: baed 293d c71d 86bd d343 d3bc d7fe ec3c
000001a0: b016 1f3e af8f da3c d04e b0bd b087 22bd
000001b0: b401 063c 68a2 de3d 5077 273d 69e7 44bd
000001c0: 4b85 bebd 1906 dcbd fd32 27bd a426 d8bc
000001d0: e7e3 62bd efc3 14be 3aaa 1fbd d33b 013c
000001e0: 378b a8bd aafd 11bd c127 bfbd 5687 02be
000001f0: 976b 80bd 4429 06bd 8cbb d13d 05f9 cd3d
00000200: 5344 933d d9cc f53c e243 d2bc 8e76 2b3e
00000210: c296 b03c ad1a 853c 65e1 c1bd 9152 053d
00000220: 97ff 9f3d 76a6 423d 2833 7b3c 8c75 cdbd
00000230: 369b 4d3d a046 b93d e4fe 263d 92d8 4cbd
00000240: 9445 a8bd 4732 223e b46b 363e 0e4c a73d
00000250: 37a1 733d 089c c6bc b33f 85bb 49da 38bd
00000260: 56cf 993d 6c07 d2bd 14b5 03be 7bbb 963d
00000270: d666 993c d54c a0bc ded1 91bd 0639 f0bc
00000280: 8110 0d3d 55c2 0a3d 1ced e53d 9211 95bc
00000290: 81d0 ccbb 3aa2 353d 141a 353d 0506 bb3c
000002a0: a3d6 da3d c610 3f3d 135f ac3d 5f1e 213e
000002b0: 90bc bd3c 591b 643d 96cb 563d a6cb cc3d
000002c0: b6ed 9dbd 1d07 d73c 68e9 d93d 41ff 72bd
000002d0: 003c 103e f1b6 2a3e ed3d 57be 072c 72bd
000002e0: 6e65 36bd fcaf ae3c c72e 133e 910e 923d
000002f0: 1b21 58be 7505 11be 9250 39bd 2894 c1bd
00000300: 6b5c 35bd 58f5 bfbd c57e babd 4490 c2bd
00000310: 328c a4bd 5b3d 1abe e4c4 a9bd 9cca a3bd
00000320: 57ea e33c c53d 23be 964b 07bd ab29 be3c
00000330: b8a1 f0bd 9d30 223e fd69 493d cc9f dabd
00000340: aa3a 523d d7b4 a13d b019 0f3e 78a6 933e
00000350: 6cf8 a83d a204 2cbe bdb9 84bd 0041 62be
00000360: ef09 bc3d 7b70 633e 8db9 9b3d f1f1 81bd
00000370: 8ab2 b4bd 8a39 46bd a88f ddbc faee 4c3d
00000380: 639b 8f3d 50c3 93bc 132e 1a3e c59d 3e3e
00000390: 013e d43d f636 593d 55cb 8a3d 6ab9 18be
000003a0: 88c2 4e3c 391d 1a3e 1677 e33c 6d40 523e
000003b0: a473 74bc 873b 0dbe 253e cb3c dc8b c43c
000003c0: bdda 9c3d 0692 3d3e d820 9d3d 0301 203d
000003d0: 619f f8bc fdd8 09bb 98a3 4c3d 892c 383e
000003e0: c404 413e d4bb ce3d 127c a1bd bcef 03bd
000003f0: 79a3 ab3c 00c1 36bd 60f2 a1bc 145b 2abe
0.019513547 0.0033455333 -0.051486842 0.011984086 0.005254837 -0.01873911 -0.04578011 -0.06179633
0.03701146 0.122530125 0.0031876985 -0.017838918 -0.004443417 0.056691386 0.033505898 -0.1250784
-0.048423696 -0.0912789 -0.15129545 -0.12684472 -0.080593795 0.043407425 -0.10176389 -0.0808963
-0.07031897 -0.009004525 0.14081231 -0.067610905 -0.19164643 -0.278094 0.18902345 0.2918228
0.13678749 -0.12198933 -0.20857674 0.18126354 0.20109761 0.055822443 -0.06582327 -0.20595938
0.17255856 0.07799829 0.07831566 -0.124608055 -0.19963267 0.2120313 0.08798657 0.14643306
0.057640065 0.0024824578 -0.01623628 -0.077379584 0.15536417 0.2667651 0.19601789 0.00142305
0.09254114 0.0981268 0.13101979 0.03471258 -0.17983767 -0.023848029 -0.06490073 -0.17111106
-0.24211195 -0.23647615 -0.055798415 -0.11241281 -0.22370867 -0.30044022 -0.15447533 -0.057950497
-0.093172364 -0.04894489 -0.06011135 0.18375428 0.013745807 -0.019687254 0.05367508 0.20718066
0.108869635 -0.06541452 -0.084173515 -0.07278771 0.09085926 0.008656455 -0.09023169 -0.17258488
-0.13536005 -0.010646796 0.07174711 -0.06321173 -0.0347109 -0.16124725 -0.113965236 -0.031947024
-0.035643753 -0.01799983 -0.07991255 -0.03818491 0.04148648 -0.06548648 -0.025789177 0.02893011
0.15535998 0.026679842 -0.08608782 -0.039680183 0.008179117 0.1087082 0.04088527 -0.048072252
-0.09302767 -0.107433505 -0.04082011 -0.026385613 -0.055393126 -0.14527868 -0.0389807 0.007887798
-0.08229678 -0.035642304 -0.09333754 -0.12746939 -0.06270521 -0.032754198 0.1024085 0.10057262
0.07190766 0.030004906 -0.025667135 0.16744444 0.021556262 0.016248072 -0.09466819 0.032549445
0.07812422 0.04752203 0.015332021 -0.10032186 0.05019685 0.09046674 0.040770426 -0.050011225
-0.08216396 0.15839492 0.17814523 0.08168803 0.05947992 -0.024244323 -0.0040664314 -0.045130048
0.07510249 -0.10255322 -0.12862045 0.07359978 0.018725794 -0.019567886 -0.07120107 -0.029324066
0.034439567 0.033876736 0.11226866 -0.018196855 -0.0062504415 0.044344164 0.044214323 0.022830019
0.1068547 0.046646856 0.084165715 0.15734242 0.023161203 0.055690143 0.05244025 0.0999978
-0.077113554 0.026248509 0.10640222 -0.05932546 0.14085388 0.16671349 -0.21019717 -0.05912402
-0.044530325 0.02132415 0.14373313 0.071316846 -0.21106379 -0.14162238 -0.045242853 -0.09452087
-0.04427759 -0.093729675 -0.091062106 -0.09500173 -0.08034553 -0.15062468 -0.08289507 -0.07997629
0.027821703 -0.15941532 -0.03303107 0.023213228 -0.117495954 0.15838857 0.049173344 -0.1067501
0.051325478 0.078958206 0.13974643 0.28837943 0.08250508 -0.16798642 -0.06480739 -0.22095108
0.09181582 0.22210877 0.076037504 -0.06344975 -0.08823116 -0.048394717 -0.02704604 0.050032593
0.070120595 -0.018037468 0.15056638 0.18614872 0.10363389 0.05303093 0.06777064 -0.1491448
0.012619622 0.1505021 0.027766746 0.20532389 -0.014920149 -0.13792239 0.024809906 0.023992471
0.076589085 0.18512735 0.0767228 0.039063465 -0.030349435 -0.0021033876 0.049960703 0.17985739
0.18849474 0.10094419 -0.07884993 -0.03221105 0.020951973 -0.044617653 -0.019768894 -0.16636306

layer.3.bias f4 [16]
00000000: a395 363e e09a b83c cff1 22be 9762 29be
00000010: f752 8f3d af80 83bd 8bc2 09be c075 c63e
00000020: a524 25bf 45cb 31bd c36f 833e 67c7 953e
00000030: 3163 e5bd 3e11 52be 7f84 3b3d abbe 44bd
0.1783052 0.022534788 -0.15912555 -0.16541515 0.06998246 -0.06421029 -0.13453119 0.3876171
-0.6450904 -0.043406744 0.25671205 0.29253694 -0.1120056 -0.2051439 0.045780655 -0.048033398

fc_layer.0.weight f4 [120, 400]
00000000: 0011 a03c 37dd f83c 2999 d23d 4005 4e3d
00000010: d7d3 aebc d306 96bc 47cc 11bd 569c a13d
00000020: 87f2 473d e5b7 5cbd ea61 adbb de5f 193d
00000030: 36e4 13bd c689 b4bc b476 42bd 744c febc
00000040: c1c6 7abc 75d1 6abc 2e95 483c 96f4 0ebd
00000050: 1126 d4ba 9d9c 113c 090d 6bbd 7756 3dbd
00000060: 38f1 88bc aee8 863d 0bad e5bc b740 e03c
00000070: b462 883c 6be8 223d 12d9 3d3d b405 11bc
00000080: 985c 053d 02fa 813c 0a93 72bb 71fe c43c
00000090: 93f9 103d b72f 95ba ab57 03bd 69ea 70bb
000000a0: 5699 9c3b 11d3 053c 00bf 503d 0b4c 76bc
000000b0: 4746 26bd 6896 a33d 9d62 e83d 2351 fc3d
000000c0: 5bdf be3d 3276 053d c8d0 38bd 385c 4bbb
000000d0: b468 b1ba 704d 4ebd b27a 373c 1bda ffbc
000000e0: 8702 87bb f012 5bbd 90fe 4cbd 32db 4dbd
000000f0: f83e 77bd 6133 c13c 4606 383c 8911 8ab9
00000100: 6576 1e3d f561 a1bd 9973 69b7 908c 6cbd
00000110: 0e00 9cbc a3db 29bd bb38 9dbd 1298 c6bc
00000120: 0382 48bd 18a5 633c ac89 21bd 37a4 c4bb
00000130: 33dc 36bd 9936 03bb e0ea 8d3c ffc5 dbbd
00000140: 48e8 563c fd7e 0e3d e387 443d 3f66 063d
00000150: f8d7 2bbd 8784 003d d227 aa3d eceb 14bd
00000160: 04c1 4c3c 273b b43d f114 84bb c086 d93c
00000170: d8ef 183d 1018 d5bc 8907 3b3d a9c4 05bd
00000180: 9b90 8a3d 26c8 24bd bb91 87bd e7b5 5ebc
00000190: 602b 03bd cb2b 1a3d d7fe 4f3c 6d01 333c
000001a0: e93c 4dbc 24e6 7a3d 5b5a 013c 3b26 1cbc
000001b0: 3e46 dfbc be5c 6fbd 0273 b33c a9dd c5bc
000001c0: d0e3 d9bc 17ed 5cbd fb40 71bb bdff 713c
000001d0: f124 00bc 4b12 cbbb 6e60 61bb 3a75 563d
000001e0: df3e 23bd 3459 8fbc 3a7e 17bd e282 2bbb
000001f0: ee26 90bd cbb0 2d3d 36d8 bbbc 76c7 403d
00000200: eba8 473d eb99 5fbc 9f13 e9bc 1dd1 a3bc
00000210: abf9 3cbc b7d1 e13c e987 813c 2393 b13c
00000220: 878b 393d db48 16bc 2578 253c 752a 86bc
00000230: 06aa 3e3d 3c32 1bbd 999a 86bc e18b 2f3d
00000240: b7bb d4bc b04e 3bb9 ea85 9bbd 5a88 c83c
00000250: e07a 023c 0f47 8f3c 4ed3 e73b f487 11bd
00000260: 1f8f c9bb 16f2 2fbd cb7d 81bc 0348 803d
00000270: 1002 d83b 5a76 043d 14fa 8a3c 3fce 6e3d
00000280: 0e91 a33c 5fb0 4a3d c17e f7bc b1cf c33d
00000290: fabf b8bc c834 6e3d ef56 913d 0dac 2d3c
000002a0: 0143 72bc c6c2 79bc 37ba 0d3c 410a 8cbc
000002b0: cee7 253c a82d 11bd b3b5 41bd 03ee d23b
000002c0: de16 663d e231 6e3d 04c8 7938 9a15 1d3c
000002d0: 7dd7 dfbc f180 d5bc ae17 26bd b461 87bc
000002e0: 947b dd3b 868f 6abb 63e4 e0bc 6e60 04bd
000002f0: 41f3 cebc 1592 ce3c 868c 07bd 1784 96bd
00000300: a250 e13c 22c4 53bc 4dfb 91bc b754 e83c
00000310: c934 8fbc 22a4 68bd 7912 18bd 32e5 85bc
00000320: 4030 113c a2fa d2bc adce 0e3d daf2 3e3d
00000330: 60f5 943b c170 d5ba a21f 42bd 50e0 b33c
00000340: 940f 00bd f2a5 e43b 102b 36bc 2800 c9bb
00000350: 2366 31bc d7d5 213d 23fd 2abd aec8 70bd
00000360: d73d 01bc 9d38 2dbc 8ec9 08bc 0b5b afbd
00000370: 6916 fd39 4321 a53b 528f 013d b380 acbc
00000380: 9a50 e7bc a6d5 e4bc fd05 bebd 1183 03bd
00000390: 54eb 42bc a90c 92bd 038a 5a3d deff ea3b
000003a0: f347 34bc 8aee 143c 3eca bc3c 5cc6 a73d
000003b0: b08b 9a3c e0f0 5abc d964 bb3c 2f58 ba3d
000003c0: 609d 443c de29 dabb db61 69ba 670d 3dbd
000003d0: 6c4e 503d 3ee6 f13c 180d adbc 712c ac3c
000003e0: 694d 6a3d 5c30 83bc ff0e abbc 430a d33c
000003f0: 8f61 65bc 3491 4fbd f212 85bd eedf 94bc
0.019539356 0.030378921 0.10283119 0.050297976 -0.021341247 -0.0183138 -0.035595205 0.07891147
0.048815276 -0.053886313 -0.0052912133 0.03744494 -0.03610631 -0.022038352 -0.047476485 -0.031042315
-0.015306176 -0.014332165 0.012242598 -0.034901224 -0.0016185661 0.008887437 -0.05738548 -0.046225037
-0.016716585 0.06587349 -0.028036615 0.027374608 0.016648628 0.039772432 0.046349593 -0.008851457
0.032559007 0.015866283 -0.0037013912 0.024047108 0.035394263 -0.0011382018 -0.03206603 -0.0036760813
0.0047790213 0.008167998 0.0509634 -0.0150327785 -0.040594365 0.07987672 0.11346934 0.12320163
0.093199454 0.032583423 -0.045120984 -0.0031030308 -0.0013535232 -0.05036682 0.011198686 -0.03123193
-0.0041201743 -0.053484857 -0.050047457 -0.05025787 -0.060362786 0.02358407 0.011231964 -0.00026334476
0.03868713 -0.07880012 -1.3914797e-05 -0.05775124 -0.019042995 -0.041469228 -0.07676836 -0.024242435
-0.048952114 0.013894342 -0.039437935 -0.0060010212 -0.044643592 -0.0020021556 0.017323911 -0.10731124
0.013116904 0.034789074 0.047981154 0.032812353 -0.04195401 0.031376388 0.08308376 -0.036357805
0.01249719 0.08800345 -0.0040308167 0.026553512 0.037338108 -0.02601245 0.045661483 -0.032658253
0.067658626 -0.04022994 -0.06619593 -0.013593174 -0.032023787 0.03763942 0.012695036 0.010925633
-0.012526729 0.061254635 0.007895078 -0.009530599 -0.027255174 -0.058438055 0.021905426 -0.024153547
-0.026597887 -0.053937044 -0.0036812413 0.014770445 -0.0078213075 -0.006197249 -0.0034389752 0.05235789
-0.03985488 -0.01749859 -0.036985613 -0.0026170542 -0.07038675 0.04240493 -0.022930246 0.04706522
0.048745077 -0.013647537 -0.028451739 -0.019997174 -0.011534135 0.02756582 0.015811877 0.021676606
0.04529908 -0.009172644 0.0100994455 -0.016377667 0.046548866 -0.037889704 -0.01643114 0.04285801
-0.025968416 -0.00017863023 -0.075939015 0.02447908 0.007963866 0.017489938 0.00707475 -0.035530046
-0.0061510946 -0.04295548 -0.015807053 0.06263735 0.0065920427 0.03233943 0.01696495 0.05830216
0.019966628 0.049484607 -0.030211808 0.09561098 -0.022552479 0.058155805 0.070966594 0.010600102
-0.014786483 -0.0152441915 0.008650354 -0.017094733 0.010126067 -0.03544393 -0.047292423 0.0064370646
0.05617415 0.05815304 5.9552505e-05 0.00958767 -0.027324433 -0.02606246 -0.040549926 -0.01652608
0.0067591164 -0.0035791113 -0.027452653 -0.032318525 -0.025262477 0.025216142 -0.033092998 -0.07349413
0.027504269 -0.01292518 -0.017820025 0.028360708 -0.017481225 -0.056797154 -0.037126992 -0.01634464
0.008861601 -0.025754277 0.03486507 0.04661832 0.0045458525 -0.0016284214 -0.04739345 0.021957546
-0.031264856 0.00697779 -0.011118665 -0.006134052 -0.010827574 0.039510574 -0.041745316 -0.058785133
-0.007888279 -0.01057258 -0.008348836 -0.08562287 0.00048272617 0.0050393655 0.03163082 -0.021057462
-0.028236676 -0.027933907 -0.09278486 -0.032107417 -0.011896927 -0.07131321 0.053354274 0.007171615
-0.011003482 0.009090075 0.023045655 0.08192131 0.018865436 -0.013363093 0.022875236 0.09098851
0.012000412 -0.006657823 -0.0008902826 -0.04615536 0.05085604 0.029528733 -0.021124408 0.021017285
0.05720273 -0.01601427 -0.020881174 0.02576173 -0.014000311 -0.050675586 -0.06497754 -0.018173184

fc_layer.0.bias f4 [120]
00000000: c409 963d 75f9 c93d cc67 613c ce35 0d3e
00000010: 27db fabc 79c5 243d a80a 5bbc a04c 40bd
00000020: e747 8bbd d82b d1bd eb37 06bd e2ce b9bd
00000030: cce8 28bd ee7d bc3c ae27 aebb e3d8 abbd
00000040: 1214 95bd cd77 1ebc 07b8 3b3c 8c73 2c3d
00000050: 1cb8 863d 9188 d43c 0968 ad3a 9175 0bbd
00000060: 8b83 8d3d b1da 8dbb 90d7 0f3d 86cb 6b3c
00000070: 8f1f 2b3b 1000 853c 4f6d 50bd 6784 393c
00000080: 0d63 98bd ea77 d43c ddc1 143c 463c e13b
00000090: 6e81 03be 8608 9b3d adad 01be 1f30 173d
000000a0: 842e 1d3d 732b 10bd dcb3 2bbd 959b 2d3c
000000b0: dbb8 243d 24a4 203d 3244 e23b 6df8 e73d
000000c0: e6ce 3c3d 6800 01bd 9637 d3bc ad9b c83c
000000d0: 0ff5 113d e0f8 40bd 80f9 97bb 827d b7bc
000000e0: ebc7 e5bc e933 063e 5cb4 873d e667 de3d
000000f0: ce39 823d ae6e 5f3d 8080 c53c b2c7 a23d
00000100: 8e01 d93c 4aac b23d 9c59 ca3b 1c1f c7bc
00000110: 9571 d13b fb12 3bbd b2db 3a3c a836 1cbe
00000120: f2a5 17bd f438 93bb 004a d8bb 489b e73c
00000130: 346b fc3d 165e 1c3d a3af 90bd 02a1 c23c
00000140: 2841 9d3c 9756 b83d 5a33 a8bc 06e1 d83d
00000150: df6e 943c 8601 063d 8d38 3ebc 9f03 83bc
00000160: 5421 013e f871 f63c 8305 833c 18da 01bd
00000170: c8ff babd 67c4 eb3c dd78 223e 2ce3 623d
00000180: 3ae7 833c 111d 61bd 14c7 2abd 17e6 113d
00000190: 8881 d4bc 927f be3b ce80 fe3c b8ca e23d
000001a0: c232 9c3d c13d 103e b6d4 4b3c 4de2 26be
000001b0: 9b99 93bd a60e 033e 144f 463c 8a7a 453b
000001c0: 231b b33d a420 0abd 400b 60bd 5e7b 25bd
000001d0: f191 b3bc 45e1 a03c ef52 bd3d dffb 823c
0.073260814 0.09862033 0.013757657 0.13790056 -0.030622078 0.040227387 -0.01336924 -0.046948075
-0.06800824 -0.10213441 -0.03276817 -0.09072663 -0.041237637 0.023009267 -0.005314789 -0.08390977
-0.07279219 -0.009672117 0.01145745 0.04210238 0.06578085 0.025944026 0.0013229857 -0.034047667
0.069098555 -0.0043290486 0.035117686 0.0143917855 0.002611134 0.016235381 -0.050885495 0.011323071
-0.074407674 0.025936086 0.009079424 0.00687364 -0.12842342 0.07569985 -0.12663908 0.036911126
0.03837444 -0.035197686 -0.041919574 0.010596176 0.040215354 0.039219037 0.006905102 0.1132668
0.04609575 -0.031494528 -0.025783341 0.024488294 0.035634097 -0.047112346 -0.004637897 -0.022398714
-0.02804943 0.1310574 0.06626198 0.10859661 0.063586816 0.05454891 0.024109125 0.07948245
0.02649 0.08724268 0.006175233 -0.024306826 0.006391714 -0.045672398 0.0114049185 -0.15255225
-0.037023492 -0.0044928733 -0.0066006184 0.028272286 0.12325135 0.038175665 -0.0706475 0.023758415
0.019196108 0.09000891 -0.020532299 0.10589795 0.018119274 0.032716297 -0.011610162 -0.015992938
0.1261037 0.030083641 0.01599384 -0.03170213 -0.09130818 0.028780175 0.15866418 0.05539243
0.016101468 -0.05495936 -0.041693762 0.03561982 -0.025940672 0.0058135474 0.031067278 0.11073822
0.07626869 0.14086057 0.012440851 -0.16297264 -0.07207032 0.12798557 0.012103815 0.0030132853
0.0874541 -0.033722535 -0.05469823 -0.040400855 -0.021920176 0.019638667 0.09244334 0.015989242

fc_layer.2.weight f4 [84, 120]
00000000: 5aa2 f23c 9eb9 78bc c9a8 0cbb 0cc7 14be
00000010: 2cbc aebd 9582 833b 48a8 fd3d 2a0b aa3c
00000020: af3e 9c3d 41af 173e bcbc d13c c7a7 153e
00000030: ded6 8d3c 5dab 013e a34c 8f3d ddc3 72bd
00000040: 0503 013e 6eb9 333e 8b42 cdbd 6db0 b73d
00000050: f4e5 9dbd fe93 46bb 3e45 f73b ef46 d7bd
00000060: a77a ec3d 3cb3 4d3d 80c6 133b 9adb cd3d
00000070: ed49 583d 7076 123b 09aa 9abd 69fc e43c
00000080: f8c2 1b3b a17b febd 0e68 21bc 33fa 2ebe
00000090: abf5 6cbc 3f0e fd3c 27c3 e43c d9e6 5c3d
000000a0: 93fd cb3c 479e d43d 31b9 65bd 18ae aabc
000000b0: 7b10 a73c e020 c4ba 548b 213d e373 edbd
000000c0: d654 c2bd 0b19 673c 81ff 9c3a 9344 9a3d
000000d0: e9be a1bd 3cdb cf3d 0866 94bd 40a5 2d3d
000000e0: e7ff 8dbd 88ab b53d cdea ccbd eba5 a8bb
000000f0: 1b78 a43c 92fc c83d 1d01 38bd bcbc 963d
00000100: f01e 823d 4546 0bbd 0d18 113e 6f1a 89bd
00000110: a328 babc 2bcb 48bb 802c e4bd 63d9 22bd
00000120: a02c c43d 621e a53c bdea b4bd da83 103b
00000130: 4ac9 523d 54f6 bfbc ee8c 033e 424e 0abe
00000140: 26ed a23c ac05 9dbd 9498 813d 9467 00be
00000150: 8869 88bb ff07 98bc 9b42 603d d71f 433d
00000160: e73e 06be 1cb7 353d e9b2 af3b bc3a f13c
00000170: dd53 da3d ac30 983d 8a7b ee3d cf6e 0d3d
00000180: 486e 3e3d f983 bbbd e4a2 9e3d 26ba 9ebc
00000190: 5b65 0c3e 1106 98bd 06f9 743d 0939 bebd
000001a0: 0b48 893d 4e62 c13d 94bb cc3d cbf2 713d
000001b0: 518c d43b a3cf edbc 3dfc 0bbd 0989 c8bc
000001c0: a569 38bb 4aff 51bd f63e 213d 4b08 8ebc
000001d0: 8866 d13d a743 4dbd 3d5b 033c 388a 8a3d
000001e0: 1b74 cdbc 0d8d c03c 88b0 fbbb 7a8f c83d
000001f0: d36c d0bc c6a1 f73d 8603 eebc 3364 883d
00000200: 8589 093d b77b efbb 2891 bc3d c9d2 c2bd
00000210: 3f22 1d3d 02eb 93bd b2d5 b2bd 9b69 69bd
00000220: 7f6e b13d e830 59bd f240 193d fb09 a33d
00000230: 4630 e8bc 0300 b83c aac1 9fbd 65c2 563d
00000240: f50a e13b e403 f23d 2f43 d53d f43f 703d
00000250: aec4 c8bc 6910 c43c bc46 ef3d 5fcf 2a3d
00000260: 3d56 8dbd 8ad3 b73d 1cdd 5a3c 80ed 863c
00000270: 2409 3aba e7c7 79bd 7ffc 5dbc 468a b03b
00000280: 03ae 8abc d458 21bc 6395 d2bc 93b4 4e3d
00000290: 8378 72bd f95c 003b 1a93 a1bc f28d b0bd
000002a0: 3354 debc 0c27 58bd 80d4 f43c 4c9d b03d
000002b0: 3301 953d 4c48 743d 9a69 7fbd 6619 24bc
000002c0: 2f89 4f3d 2312 b9bd 14e7 e5bc a802 8bbc
000002d0: 94d1 eb3d 2010 2cbd a4bc bb3d 2d33 82bd
000002e0: ee68 a33d 36f0 923c 8407 f13a 895a 2cbd
000002f0: eb74 393e 2e98 b4bd 2733 273e c36c f4bc
00000300: 0df4 b6bd 252a a73d 02c2 2abd 4725 1d3d
00000310: 006d aabb 34ea 6f3d ed76 47bd 4a79 283e
00000320: 891a 82bd 460c 643d 27d4 783c a61d f43d
00000330: cf21 833c 632d 0abe 89d3 1bbe 1bc3 9f3d
00000340: 8427 bb3d 6dc0 cd3c d732 bc3c daad 40bd
00000350: 8b6b 3cbc dbb1 0b3d f8d3 94bd a51a 843d
00000360: b0f2 423d 3249 afbc 813d 333d 58d4 afbc
00000370: f23c c6bc 7b67 033d d7a5 87bd 0bed 9b3d
00000380: 14b3 673c 70de a3bd 0f87 d1bc 6234 1c3e
00000390: e5be c43d e4dc a33d 7365 c7bc da08 5e39
000003a0: a4f5 ae3d 6a11 99bd bca2 813d 08f6 863d
000003b0: 7882 163d 7dcb a7bd 1a4a 37bd 12d5 df3c
000003c0: 8fef 24bd 1b19 cdbc a2d7 823d f42f 88bd
000003d0: c11d 34bd 0ca7 1c3d 2c50 8bbd f6b2 77bd
000003e0: 7412 1ebd e1e9 7b3d 41f0 d5bb 94fe b4bc
000003f0: 0ab8 1a3d dfc7 b7bd e0d8 54bd bbfc 73bd
0.02961843 -0.015180973 -0.0021462908 -0.14529055 -0.08531985 0.0040133693 0.12385613 0.020757277
0.076291434 0.14812948 0.02560269 0.14614783 0.01731437 0.12663026 0.06997039 -0.05926882
0.12598808 0.17551205 -0.10022458 0.089691974 -0.07709876 -0.0030300613 0.007546096 -0.105115764
0.115468316 0.05021976 0.0022548735 0.10051651 0.052804876 0.0022348426 -0.07551963 0.02795239
0.0023767333 -0.12425924 -0.009851469 -0.17087631 -0.014462869 0.030890582 0.027925087 0.05393109
0.024901187 0.103817515 -0.056084815 -0.020834967 0.0203936 -0.0014963411 0.039439514 -0.11594369
-0.094888374 0.014105092 0.0011978002 0.07532611 -0.07897741 0.101492375 -0.072460234 0.042393923
-0.06933575 0.088706076 -0.10005722 -0.005146732 0.020076802 0.09813799 -0.044922937 0.07360217
0.06353557 -0.03400256 0.14169331 -0.06694495 -0.022724455 -0.0030638676 -0.111413 -0.039758097
0.09578824 0.02015609 -0.08833835 0.0022051246 0.051461495 -0.023432888 0.12846729 -0.13506415
0.019888472 -0.076670974 0.0632793 -0.12539512 -0.004162971 -0.0185585 0.05475102 0.047637787
-0.13109933 0.04436408 0.005361904 0.029446952 0.10660527 0.074311584 0.11644657 0.034529503
0.04649189 -0.09156031 0.07745913 -0.019375872 0.13710539 -0.07423032 0.0598078 -0.09288222
0.06703194 0.09442578 0.09996715 0.059069436 0.0064864536 -0.029029673 -0.0341761 -0.024479406
-0.002813914 -0.051268853 0.039366685 -0.017337939 0.102246344 -0.050113346 0.008017358 0.067646444
-0.025079777 0.023504758 -0.0076809563 0.09792991 -0.025442516 0.12091403 -0.029054414 0.066597365
0.033578414 -0.007308449 0.09207374 -0.0951286 0.038362738 -0.072225586 -0.087321654 -0.05698548
0.086636536 -0.053025156 0.037415452 0.07960888 -0.028343331 0.022460943 -0.0780061 0.052431483
0.0068677613 0.11817148 0.10413205 0.05865474 -0.024507847 0.023933606 0.116834134 0.04170167
-0.06901214 0.08975895 0.013358381 0.01647067 -0.0007096699 -0.060981657 -0.013548969 0.005387577
-0.016928678 -0.009847838 -0.025705999 0.050465178 -0.05919696 0.0019586666 -0.019723464 -0.08620824
-0.027139759 -0.052771613 0.029886484 0.08623752 0.07275619 0.05963926 -0.06235657 -0.010015821
0.050667938 -0.090366624 -0.028064288 -0.01696904 0.11514583 -0.042007565 0.0916684 -0.06357417
0.07978998 0.017936807 0.0018389081 -0.04207853 0.18111007 -0.088180885 0.16328107 -0.029837018
-0.08933268 0.08162335 -0.041688927 0.03836563 -0.005200982 0.058572963 -0.0486974 0.16452518
-0.063527174 0.055675767 0.0151873 0.119197175 0.016007332 -0.13493876 -0.15217413 0.07800885
0.091383964 0.02511617 0.022973461 -0.047040798 -0.01150025 0.034105163 -0.07266992 0.064503945
0.047594726 -0.021397207 0.043759827 -0.021463558 -0.024198983 0.03208111 -0.06623428 0.07613572
0.014141817 -0.08001411 -0.025577096 0.15254357 0.09606723 0.08001116 -0.024340367 0.00021174867
0.08542946 -0.074740246 0.06329867 0.065898955 0.03674552 -0.08193109 -0.044748403 0.02732328
-0.040267523 -0.025036385 0.06388785 -0.06649771 -0.043973688 0.038245246 -0.06802401 -0.060473405
-0.038591817 0.06150234 -0.0065288846 -0.022094049 0.03777317 -0.08973669 -0.05196464 -0.059567194

fc_layer.2.bias f4 [84]
00000000: c879 82bd 170f ba3c 8079 5bbd 89b9 b4bc
00000010: d81d 6a3d 277f 3b3e 5c41 16bd 9e4b 80bd
00000020: 3082 10be 45d9 f7bc abbf 04bd 127c 473c
00000030: 0277 59bd c245 013d 734d 26be ac7d 1ebd
00000040: 98f6 903d c3d4 6dbd 1f19 02be 797d dd3d
00000050: 202f e33c bba0 243e dcd1 c7bd 71ac 75bd
00000060: c363 ba3d c8e5 38bd 8d13 b3bd 2a8f 893d
00000070: 8972 7dbd 29d2 393e b08d 24be 28ee 533e
00000080: eca6 61be 80ea e63d 189e 2dbd 8ee0 5e3c
00000090: 06b7 8c3d f647 99bd 5d00 713e 064e b0bd
000000a0: 6ec8 18be 4cab 20be 01db a53d 8a81 8e3d
000000b0: dc33 c2ba 0a9e 24bd 169d 623c e8b4 1d3e
000000c0: ac82 f43d 57dd 513e 6e3c 0abd d160 b03d
000000d0: bf37 103d f723 8a3d 89d1 85bd 9a79 ec3d
000000e0: ab62 e9bd ac83 1e3e 2b4d 0f3d c325 4f3e
000000f0: 4d7b 96bd c03e 6ebd febd a0bd a878 b8ba
00000100: cedf f0bb 7fa1 17bc 6aaf 48bd 4fa9 4c3d
00000110: 93dd d03c 2ce4 f93d 0afc 463e 0d19 4a3e
00000120: ae13 a03e 2204 cdbd c816 6cbd 9dfd 893e
00000130: 2d72 84bd c7d9 da3d 32ff 64ba dbc4 e6bc
00000140: c856 d03d ad6d 86bb 6377 fcbc b240 06bd
-0.06370884 0.022712274 -0.05358267 -0.022061126 0.057157367 0.18310224 -0.036683425 -0.06264423
-0.14112163 -0.03025497 -0.03240935 0.012175577 -0.05309201 0.031560667 -0.16240482 -0.03869407
0.07078284 -0.058064234 -0.12704895 0.10814948 0.027732432 0.16076939 -0.097568244 -0.059978906
0.09101059 -0.04514101 -0.087439634 0.067167595 -0.061876807 0.18146576 -0.16069674 0.20696318
-0.22036332 0.11275196 -0.042387098 0.013603343 0.068708465 -0.074844286 0.23535295 -0.08608632
-0.14920208 -0.15690345 0.08098412 0.06958301 -0.0014816481 -0.04018978 0.0138313975 0.15401042
0.11938986 0.2049459 -0.033749036 0.08612216 0.035209414 0.06745141 -0.06534106 0.11546631
-0.113957725 0.15479916 0.034985702 0.20229249 -0.073477365 -0.05816531 -0.07848738 -0.0014074044
-0.0073508983 -0.009254812 -0.048995413 0.049966153 0.02549628 0.122017235 0.19432083 0.19736119
0.31265014 -0.10010554 -0.057638913 0.26951304 -0.0646709 0.10686069 -0.0008735537 -0.02817004
0.10172802 -0.00410243 -0.030818647 -0.032776542

fc_layer.4.weight f4 [10, 84]
00000000: 672c 953e d1ab 7cbb 445f 79bb e16c bbbd
00000010: ac2b d6bc c3c4 13be 35d9 423e 3c3d da3d
00000020: 1820 303d dc83 8abd 25ff b13d d20c ad3e
00000030: 2f31 2c3e 8f7e 2d3e 6152 d9bc eb26 00bd
00000040: 9791 9b3c e193 a8bd ef66 7e3e fe39 e33d
00000050: 16fc 3c3e 82cc 303e 1c7d 8cbe e8b9 efbc
00000060: 8d39 573e bfe2 e9bd a0ec d33d c3d0 343c
00000070: 4d65 8cbe 7ddc 26be 17d7 b53e 2b6c be3e
00000080: c272 9b3d 968d 16be 9a54 22be 17f9 d43d
00000090: b717 12be c39b 85bd 8623 c0be fcd7 093b
000000a0: a18c 05bd 49d0 2dbe 3bbe 0d3e 86fb bfbd
000000b0: f7ff 0a3e 3c8b 1fbd e671 d03d 3445 043e
000000c0: 2db3 e3bd 2db3 f9b9 e12c 673d 8043 e6bd
000000d0: 53d9 803e 27f6 c0bd 3c86 2e3e a75e 53be
000000e0: 7ad6 203c 5c62 48be f216 02bd c302 a6bd
000000f0: f0fc e23d babd f7bb 3a7e 1cbd 3d50 c93d
00000100: 1ec3 833d 1cf9 e2bd efc2 ccbe 453e eabc
00000110: cbc2 843d 8038 2dbe ca64 ab3e 1a17 f73b
00000120: de13 c5bd 5e08 1f3c 0f05 2fbd 9459 013e
00000130: c5a0 693a 5a0b 11bd 1e5f 013e 37d8 8e3e
00000140: cfe5 8ebd 6caa 26be e09f b9bd d547 c73d
00000150: 9702 a93e 4df3 9cbe 7f73 d439 0c70 24bd
00000160: 759a f2bd 60c8 d73d db11 c9bd 61a0 71bd
00000170: 8dfb b83e 1148 c53d 4a6b b33c c507 233e
00000180: c8f6 143d 85f3 da3b a967 5f3c ac4a dcbd
00000190: a48a d6bd 858a 70bc 273f 04be 7a60 ec3d
000001a0: 4887 0abe cdc2 29be de2d f0bb 4c0a e23d
000001b0: 8ae4 10be 6a97 0a3c a1e3 5abc f2d4 ca3d
000001c0: 19cf debd 348a 13bd 9ef9 823c b651 0fbe
000001d0: 39b9 333e 293e 483e 7982 793d e4a5 4dbe
000001e0: 20a3 1b3e da3c 1d3e 82c3 0fbe ba75 213d
000001f0: 0768 f63d 5db1 3d3e d0e0 743e 9208 cebd
00000200: a889 723e ba84 97bd 8f7c d33c 65ba 5abe
00000210: 47d0 24be 83d8 a5be a9d7 76bd da6c 763e
00000220: 43db c3bd b67d 5b3e 4fe5 a9bc 91f5 893d
00000230: d437 b63e c169 6dbd 30cf 66be 9493 273e
00000240: 7a66 42be c704 e83c 8f18 fd3d 63dc b8bd
00000250: 9d13 f13c 70c3 5c3d 5974 533e 9e16 fc3d
00000260: 54ce b2bc 2f75 103e b8c5 42be 4c13 b8be
00000270: a0ec 78be 1b5d 6bbe a242 953d 47a3 99be
00000280: ab69 5b3e 2cb4 95bd 54cc 0fbe 7ce3 a3bd
00000290: 367f 3bbe 6e88 0d3d dbc4 3d3d 9014 b6be
000002a0: 0189 573e 8f52 583e 2072 51bd 7ec9 d73d
000002b0: 9efe 80be 10b8 a63b 73b1 713c f954 c6bd
000002c0: b398 0bbe 20b3 fe3d 0c0b 2abe 511f 49be
000002d0: b3aa d2bd 881c c3bd 8408 b23e 595b 84bd
000002e0: 3416 bdbc 492c 12bd 0f64 2b3e cc0e abbd
000002f0: 4858 da3d c7c4 9e3e d6d8 3bbe 23f9 83bc
00000300: 4a31 23be 78fa 68be a634 333d 3d8b 70be
00000310: bc3e 9fbd b215 b33e 4399 06be fa5b 9a3e
00000320: e8a8 25be be50 e7bd 67f2 353d 347b 353e
00000330: 2c32 10bd 1e7d 333e 9987 8f3d 28c4 88bd
00000340: 53ae febb 80b0 a13d 58f9 10bd 4ff8 35be
00000350: 7b50 123e 2052 da3e 87b5 19bb 2c04 99be
00000360: f371 04be 5aac 1bbd 07e8 963d 1b75 ed3c
00000370: 2494 36bd 1caf 7ebe 5108 f3bd 0d6c 4e3e
00000380: 28ea 0b3c 2609 adbc bb7e a53c d822 1bbe
00000390: 6869 49be 6c60 0cbb a9d4 933e ad1d 6bbd
000003a0: cbb1 a8bd e79e a0bd 8624 42bd 58e4 a23c
000003b0: e79d 843e ee72 5cbc e430 003d 4aa9 c53d
000003c0: ed1e ab3d 31fe 513e e44d 063d d06b 333e
000003d0: 1a00 a8bd 90c8 9c3c daee 1c3e a38e 4e3e
000003e0: b49f 4a3e 1b13 87bd ed82 bbbd be56 dc3d
000003f0: 2406 a8bd 4e60 3d3d bc3e b2bb 1a9e da3d
0.2913544 -0.003855456 -0.0038051168 -0.091516264 -0.026143871 -0.14430527 0.1902817 0.10656211
0.042999357 -0.067634314 0.08691243 0.33798844 0.16815637 0.1694281 -0.02652854 -0.031287115
0.018990321 -0.08231331 0.24843954 0.110950455 0.18455538 0.17265514 -0.274392 -0.029263452
0.21018048 -0.114202015 0.10347867 0.011036101 -0.27421036 -0.16295047 0.35515663 0.371919
0.07590248 -0.14702448 -0.15852585 0.103990726 -0.14266859 -0.0652385 -0.37527102 0.0021033278
-0.032604817 -0.16973986 0.13842098 -0.09374146 0.13574205 -0.038951144 0.101779744 0.12917024
-0.111181594 -0.00047626477 0.056439284 -0.11243343 0.25165805 -0.0942195 0.17043394 -0.20641576
0.00981676 -0.19568771 -0.031760164 -0.081059955 0.110834 -0.007560459 -0.038206317 0.09829757
0.064337 -0.1108267 -0.39992473 -0.028594146 0.06482466 -0.16916084 0.33475333 0.0075405957
-0.0962293 0.009706585 -0.042729434 0.12631828 0.0008912201 -0.035411216 0.1263394 0.27899334
-0.06977426 -0.16275948 -0.09063697 0.09730498 0.33009788 -0.30654374 0.00040521842 -0.04014592
-0.118458666 0.105362654 -0.09817859 -0.05899084 0.36129418 0.09632886 0.021901745 0.15920933
0.03636816 0.006681862 0.013635554 -0.1075643 -0.10475662 -0.014681463 -0.12914716 0.11541839
-0.13528168 -0.16578217 -0.0073296865 0.1103712 -0.1414968 0.0084589515 -0.013359935 0.09903897
-0.108793445 -0.036020473 0.015988167 -0.13996014 0.17551126 0.19554962 0.060915444 -0.20082814
0.15198946 0.15355244 -0.14039424 0.039418913 0.120315604 0.1852469 0.23913884 -0.100602284
0.23685324 -0.073983625 0.02581623 -0.21360166 -0.16095077 -0.32391748 -0.060264263 0.24064961
-0.09563305 0.21434674 -0.020739226 0.06736291 0.35589468 -0.057962183 -0.22539973 0.1636489
-0.18984404 0.02832259 0.123582 -0.090264104 0.029428298 0.05389732 0.20649852 0.123090014
-0.0218269 0.14107202 -0.19020736 -0.35952222 -0.24309015 -0.22984736 0.072881 -0.30007383
0.21427028 -0.07309756 -0.14042789 -0.080023736 -0.18310246 0.034553938 0.046330314 -0.35562563
0.21048357 0.21125244 -0.05113423 0.105364785 -0.25194257 0.00508786 0.01475178 -0.09684176
-0.13632469 0.12436509 -0.16605777 -0.19640853 -0.102864645 -0.09526926 0.34772122 -0.06462736
-0.023081876 -0.035686765 0.16737388 -0.08352432 0.106613696 0.31009504 -0.18344435 -0.016110009
-0.15936771 -0.22751796 0.04375138 -0.23490615 -0.077756375 0.3497749 -0.13144402 0.30148298
-0.16177714 -0.11294697 0.044420626 0.1772278 -0.035204098 0.17528197 0.07008285 -0.06678039
-0.007772246 0.07894993 -0.035394043 -0.17770503 0.14288513 0.4264078 -0.0023454146 -0.29885995
-0.12934093 -0.038006164 0.073684745 0.028986504 -0.04457487 -0.24871486 -0.118668206 0.20158406
0.008539714 -0.021122526 0.020202031 -0.1515001 -0.19669116 -0.0021419777 0.28873184 -0.057401348
-0.08237036 -0.07842808 -0.047398113 0.019884273 0.2590172 -0.013455136 0.031296626 0.0965143
0.08355508 0.20507123 0.032789126 0.17521596 -0.08203144 0.019138604 0.1532549 0.20171599
0.19787484 -0.06595441 -0.091558315 0.10758732 -0.08204296 0.04623442 -0.0054396074 0.10674687

fc_layer.4.bias f4 [10]
00000000: 40f0 3cbd d3d2 a5be f068 303e 65bb f23d
00000010: bcdd d43e 7fa6 94bd a2de 12be 37c5 81be
00000020: 0da8 f93e 4431 37be
-0.046127558 -0.3238741 0.1722753 0.11852149 0.4157542 -0.07258319 -0.1434274 -0.25345775
0.48761025 -0.17889887
