PythonApplication2/cifar_net.pth (torch, 203231 bytes, 6 tensors)

layer1.0.weight f4 [32, 1, 3, 3]
000000 27 35 ef be e3 c9 f9 bd ee 1d 0b bd c5 34 e6 bd
       -0.4672024 -0.1219671 -0.03396409 -0.11240534
000010 1e 97 8f 3e a1 6c c5 3e d0 bc 16 3e ac 3e e9 bb
       0.2804498 0.3855944 0.14720464 -0.007118067
000020 4c b7 01 3e e3 53 df be 5a 25 bf be 37 b6 67 3d
       0.12667578 -0.43618688 -0.37333184 0.056570258
000030 99 60 ec be 0a a7 7d 3e 49 f8 8b 3e a2 82 06 3f
       -0.46167448 0.24770752 0.27337864 0.5254308
000040 89 50 f3 3e e0 3f 22 be e9 19 95 3e cb b7 a4 3e
       0.4752238 -0.15844679 0.2912133 0.32171473
000050 ef 79 1f 3e 76 96 6f be 3d 91 c3 bc 3c 5d 57 be
       0.15573858 -0.2339724 -0.023872966 -0.2103166
000060 7a 70 39 3e 8a ae 79 3e f4 95 8b 3e f7 43 86 be
       0.18109313 0.24382988 0.27262843 -0.26223728
000070 7a 89 2d bf 46 2a c7 be 52 46 19 bd ad 99 e4 3d
       -0.677879 -0.3889944 -0.03742058 0.11162124
000080 3f fd 60 3d 9b 09 0c 3f 6c b6 b2 3d 15 3a df 3e
       0.054929014 0.54702157 0.087262005 0.43599
000090 24 43 c8 3e f9 0b 19 3e 7f d6 21 be 12 82 6f 3e
       0.39113724 0.14945973 -0.1580448 0.23389462
0000a0 16 e3 d4 bd f5 e2 77 be 60 91 cb 3e 47 79 e3 3e
       -0.10394876 -0.24207671 0.3975935 0.44428465
0000b0 d0 a0 cb be 13 e8 40 bf b4 d0 5e be 00 0c 67 bd
       -0.39771128 -0.7535412 -0.21759301 -0.05640793
0000c0 e4 84 0c bf fd 78 c1 bd bb 62 01 3f 1d 2c 83 be
       -0.54890275 -0.09446905 0.50541276 -0.25619593
0000d0 eb 6e d3 3d 5f d4 04 3f 66 7e 84 3c 1d b7 57 3e
       0.1032389 0.5188655 0.016173553 0.21065946
0000e0 65 50 88 be 50 c8 34 3e aa a9 00 3f 0c fb d0 3d
       -0.26623836 0.17654538 0.50258887 0.102041334
0000f0 89 13 9c 3d 9c 9c 9b be d8 a2 ac be 11 a9 2e be
       0.076209135 -0.3039292 -0.3371799 -0.17056681
000100 04 5b 9d 3e 0c bb 06 3f 6a 73 cf b9 25 74 d6 be
       0.30733502 0.5262916 -0.00039568107 -0.41885486
000110 ca e8 f9 bd 05 70 b3 bd e9 64 9f be e3 60 c0 be
       -0.12202604 -0.087616004 -0.31131676 -0.3757392
000120 a5 c3 da 3c fe e2 35 bf 26 d3 32 bf 0b ed 73 3f
       0.026704619 -0.7104949 -0.69853437 0.95283574
000130 c4 72 7b ba 67 e1 ac be be ea f2 3e 54 de 89 3e
       -0.00095919915 -0.33765718 0.4744472 0.26927435
000140 b4 20 73 3e 5a 48 9a be ce 83 1a 3e 6a 28 61 3e
       0.23742944 -0.30133325 0.15089342 0.21988073
000150 1f 4d 91 3e cc 5e 87 be 68 e8 32 3d 63 9c ba 3e
       0.2837915 -0.26439512 0.04367867 0.3644744
000160 a8 86 95 3e 56 04 66 3e 25 4b ff be 1a a8 c9 be
       0.29204297 0.22462592 -0.49862018 -0.39386064
000170 92 4e 71 3e d8 92 c3 3e 88 b1 df 3e 48 0b 95 3e
       0.23565128 0.3819797 0.43690133 0.2911017
000180 de bf 43 3e 57 0e 2e 3e e1 69 91 bc 1e 7a dd 3e
       0.1911616 0.16997658 -0.017750682 0.4325723
000190 b6 57 ac 3d 8c 11 ae be 01 ad 2d 3e d3 40 23 be
       0.08415167 -0.33997762 0.16960527 -0.15942697
0001a0 da 8c 1d be 9a 55 0e 3e 91 5a 16 bf d9 20 34 bf
       -0.15385762 0.13899842 -0.58731943 -0.7036262
0001b0 f3 4e 78 be 50 35 bc 3e 71 42 04 3f af 58 f1 be
       -0.24248867 0.36759424 0.5166388 -0.47137973
0001c0 5d ae 70 be 68 f2 90 3e e0 a9 0e bf 59 85 2b bf
       -0.23504014 0.2830994 -0.5572796 -0.6700035
0001d0 9a f2 9c be 2f 8c 24 3e 45 3e 2c 3e 50 28 01 bf
       -0.3065384 0.16069101 0.16820629 -0.50452137
0001e0 34 a2 78 be 07 40 cd 3e ca a4 ff 3e 75 a5 55 3d
       -0.24280626 0.4008791 0.49930412 0.052159745
0001f0 96 8d 92 3e 38 0c 1d be a9 43 5c bc fb 72 0b 3f
       0.28623646 -0.15336692 -0.013443866 0.5447232
000200 c0 20 d4 3e 04 93 8c 3e 97 cb 4b 3c 4d a7 a9 3e
       0.41431236 0.27455914 0.012438676 0.33135453
000210 10 ec 4f bf 5f 02 17 bf 62 c2 70 3d ed ec 52 3e
       -0.8121958 -0.58987993 0.058779128 0.20598193
000220 48 39 a3 be 77 1e 2c 3e 8c 07 aa 3e 29 32 97 be
       -0.3187964 0.16808496 0.33208883 -0.29530457
000230 d4 df 67 3e 05 48 0a 3e 27 1c 83 be 6e 14 3e 3e
       0.22643977 0.13504036 -0.25607416 0.18562481
000240 69 ee d8 be f3 22 55 be a1 c0 a6 3e 50 26 f3 be
       -0.42369393 -0.20814113 0.3256884 -0.47490168
000250 1e cd 5f bd ec 31 a1 3e 28 c7 e6 be c9 67 87 3d
       -0.054638974 0.314834 -0.4507382 0.06611592
000260 cf a2 1e 3f 1d eb b0 be 5b 86 ac bd 65 f2 b4 3e
       0.61967176 -0.34554377 -0.08424064 0.35341182
000270 8f 7b f4 be 0c 26 98 bd 6d 16 83 3e 2f 34 34 be
       -0.47750518 -0.07429132 0.25603047 -0.17598031
000280 d2 86 df 3d 63 a0 16 3f aa 9d 88 3e 68 25 e9 be
       0.10914387 0.5883848 0.26682788 -0.4553635
000290 df 44 af be 11 2e ff 3e 62 91 2b be a0 8b 0b bf
       -0.34232232 0.49839833 -0.16754678 -0.54509926
0002a0 7d 2b ba 3e cc ee d8 3d d1 af cc 3e 21 8f 93 3d
       0.36361304 0.10592422 0.39977887 0.07205034
0002b0 ec 1a 8f ba a7 f6 c1 3e 4b 73 98 3e 68 43 c3 3e
       -0.0010918058 0.37883493 0.29775462 0.38137364
0002c0 fa 92 60 3e 51 24 a7 3d a8 f3 87 3d 5b 58 99 be
       0.21931067 0.08161224 0.066382706 -0.29950222
0002d0 02 f7 df 3d 2d da 09 bf f4 0a 14 bf a1 6f 5b be
       0.10935785 -0.53848535 -0.57829213 -0.21429302
0002e0 40 51 aa 3e 6b b7 bb 3e 4f bb e5 3c a0 aa 91 3e
       0.33265114 0.36663374 0.028043417 0.2845049
0002f0 29 a3 a9 3e 58 ec be 3e 29 38 c8 be aa 41 a3 be
       0.33132294 0.3728969 -0.39105347 -0.31886035
000300 b8 36 7a 3e 80 4f 01 3f 93 b3 d1 3e ed af 83 bd
       0.24434936 0.5051193 0.40957317 -0.064300396
000310 f9 be 9e be bc 35 e5 3d e2 e8 d1 be 5c 66 5a 3e
       -0.31005076 0.1119189 -0.40997988 0.2132811
000320 bd 3a f1 3d 2d a7 b6 3e 69 6f 77 3e e2 db 25 bb
       0.117787816 0.3567442 0.24163593 -0.0025308062
000330 cf 34 d1 3e 20 37 3d 3e a5 14 34 bf 60 b5 b9 be
       0.40860602 0.1847806 -0.70344 -0.3627119
000340 f2 78 ed 3e 7c 95 0c be de 7d 90 bd bd c1 19 3f
       0.46381336 -0.13728899 -0.07055257 0.60061246
000350 29 ae d4 be 34 15 2e 3e 2d 2f 07 be 37 55 90 be
       -0.41539124 0.17000276 -0.1320159 -0.28190014
000360 b5 d4 03 3f a3 cf 81 be 4f 13 89 be c2 dc a6 3e
       0.5149644 -0.25353727 -0.26772544 0.325903
000370 3c 32 d8 be 5d 5c 48 bd 22 ad 2b be 7d 1e 80 be
       -0.42225826 -0.04891621 -0.16765264 -0.2502326
000380 4a 08 06 bf e9 c7 07 3f 0a 50 03 3f 82 12 b0 3e
       -0.523564 0.53039414 0.51294005 0.3438912
000390 25 1b e8 3c da 2f ed 3d 25 05 a6 be 16 6f e3 be
       0.028333256 0.115813926 -0.324258 -0.4442069
0003a0 1b 74 30 bf 1f cb f5 be cb e6 cb 3b 1c 62 49 3f
       -0.6892716 -0.48006532 0.006222581 0.7866533
0003b0 d9 c7 11 3f f8 a5 27 bf 90 e3 22 be da 38 ac 3e
       0.5694557 -0.65487623 -0.1590712 0.33637124
0003c0 e9 2d 1e bf d4 f1 e6 be f3 da 37 3e 0c 18 72 be
       -0.61788803 -0.45106375 0.17954616 -0.23641986
0003d0 ed 73 96 bc cc cc da 3e 0f 26 be be 02 b8 95 be
       -0.018365825 0.42734373 -0.3713841 -0.2924195
0003e0 86 69 5f be 0e 35 fd 3e 96 8d 34 be 8c 7b 9b be
       -0.21817598 0.4945454 -0.17632136 -0.30367696
0003f0 7d ab 0a 3f 57 d7 1a 3f c0 e0 b5 3e a4 6f 0d 3e
       0.5416792 0.6048483 0.35523033 0.13812119

layer1.0.bias f4 [32]
000000 a3 24 a7 bd 16 f6 0e bd 4a 5c 6c be b6 37 21 3e
       -0.08161285 -0.034902655 -0.2308208 0.15743908
000010 83 04 8d be b1 9f 13 3e 2a d5 b6 bc 8d 63 39 3e
       -0.27542505 0.14416386 -0.022318441 0.18104382
000020 b4 e7 a9 bb 2a fe 9c be 5f 0b 06 be 38 3f 84 3e
       -0.005185092 -0.30662662 -0.13090275 0.25829482
000030 67 e1 8a 3e 52 0e 0b be 4c 57 a7 bd d1 cf f0 bd
       0.27125093 -0.13579682 -0.081709474 -0.11758388
000040 ac 6a 65 bd 89 31 d9 bd 3f c6 21 3b a2 eb 2d be
       -0.056009933 -0.10605151 0.0024684814 -0.16984418
000050 27 d0 7d bc c6 46 eb bd 91 86 0c bc a3 a2 01 bb
       -0.015491522 -0.11488108 -0.008577005 -0.0019780777
000060 c7 72 84 3e e1 c4 80 3e 77 10 88 bc 5f 98 7a 3e
       0.25868818 0.25150207 -0.016609414 0.24472187
000070 c4 54 15 bc fe 4b c2 bd c4 9c f4 bc 89 95 32 3d
       -0.009114448 -0.094871506 -0.029859908 0.04359964

layer2.0.weight f4 [64, 32, 3, 3]
000000 8b 22 1a be 09 50 96 3c c3 e7 66 bc 3a 7d 9e 3d
       -0.1505224 0.01834871 -0.014093342 0.07738729
000010 b9 e6 91 bd 25 e3 14 3d b4 5d 85 3d 91 c7 80 3b
       -0.07124085 0.036349434 0.06512013 0.00393004
000020 ee d1 e5 3d e7 9f e2 bd 55 2d 1e 3b e1 bb c2 bd
       0.112216815 -0.11065655 0.0024135907 -0.09508491
000030 51 90 8b 3c 5c cf 22 3b 5f f6 a6 bd 02 b1 85 3b
       0.017036589 0.0024842834 -0.0815246 0.004079939
000040 95 09 36 3d 17 69 e9 3d 16 ce d1 bd cf 15 25 3d
       0.044442732 0.113969974 -0.10244386 0.040304
000050 d7 6d 3b 3e 08 09 66 bd 72 a5 93 bd 68 d5 c2 3d
       0.1830362 -0.056160957 -0.072092906 0.0951336
000060 89 6a 77 3d c0 d6 95 3d 89 64 bf 3d 46 c1 c4 bd
       0.060404334 0.07316351 0.093453474 -0.096071765
000070 95 b1 82 be 28 d1 c3 bd de 5b 3e 3d 8a cf 4a bd
       -0.2552611 -0.09561378 0.04647433 -0.04951433
000080 63 ea 2f be b4 a0 ea bc cb b4 a3 bb 88 68 da 3d
       -0.17179255 -0.028641082 -0.0049959174 0.10664469
000090 b9 3e 9a bd 37 58 8c 3d d9 c2 38 3e 7b ae 7e 3a
       -0.07531495 0.06852763 0.18043078 0.00097153307
0000a0 fd 34 2d be 60 2c 27 be 22 b1 ed bd 03 62 5e bd
       -0.16914745 -0.16325521 -0.11606051 -0.05429269
0000b0 c0 93 36 be 9f 0b 56 bd 10 c3 aa 3d eb 8f 8f bd
       -0.178298 -0.052257176 0.083379865 -0.07009872
0000c0 57 c4 86 bd 1d 63 d3 bd 59 60 47 bb b9 19 ca bd
       -0.065804176 -0.10321639 -0.0030422418 -0.098681875
0000d0 80 53 d6 bd 8a 69 d1 3d f9 26 7b bd 13 3f 86 3b
       -0.10465145 0.10225208 -0.061316464 0.0040968745
0000e0 54 76 39 b9 a0 cc c9 bd 47 7a e7 bd 2e 8f e3 bc
       -0.00017687056 -0.09853482 -0.113026194 -0.027778234
0000f0 68 7b a1 3d c2 68 3f 3d f6 96 ca bc e3 bd 02 bd
       0.07884866 0.046730764 -0.024730187 -0.03191937
000100 9d b5 20 3d 9d 01 2d be e0 68 c7 bd dd 9b ae bd
       0.0392357 -0.16895147 -0.097368 -0.08525822
000110 42 df 39 3d 6b 4b c2 bd 77 16 08 be d1 26 ab 3b
       0.04537893 -0.09487041 -0.1328982 0.005223133
000120 6e 14 c2 bd a7 b6 51 be 6c 1c 24 3e 7b 31 06 3e
       -0.09476553 -0.20479833 0.16026467 0.13104813
000130 05 f0 ed 3d af bb 86 3d 90 a0 f8 3d ec 39 f1 3d
       0.11618046 0.065787666 0.1214 0.11778626
000140 ef 63 d0 bc c3 82 fa bd 88 41 d0 3b bc 04 34 3d
       -0.025438277 -0.12231972 0.006355468 0.043949828
000150 9a 12 72 bc 87 06 47 3b ba 88 1c 3b c2 41 13 bc
       -0.014774943 0.003036888 0.0023885206 -0.008987846
000160 2c 06 6e bb 48 57 08 3e a8 71 01 be 88 0d cf 3c
       -0.0036319597 0.13314545 -0.12641013 0.025275007
000170 d1 9a b4 3d ac a5 72 3d a2 45 2f 3c 0e 0e d7 bd
       0.088185914 0.05924003 0.010697754 -0.105007276
000180 36 0f 10 3d f3 9c 36 3d 35 16 fd 3d f8 16 31 be
       0.035170756 0.044583272 0.12357751 -0.17293918
000190 40 0d b8 bd 3f 4e 5a be 69 ab e7 bd 2b e2 2c be
       -0.08986902 -0.21318911 -0.11311991 -0.16883151
0001a0 d7 16 8e be ed 42 f2 bd 66 ce 09 be 71 a2 3e be
       -0.277518 -0.11829171 -0.13457641 -0.18616654
0001b0 4b 52 42 bd 9e 7c a5 3b b3 51 9e bd fb 86 0b be
       -0.047441762 0.005050256 -0.07730427 -0.1362571
0001c0 ea 90 90 bd f2 7e 03 3e 73 61 14 bd 96 d1 18 be
       -0.0705889 0.12841395 -0.036225747 -0.149237
0001d0 91 5c 00 bd a1 94 cd bd 26 00 a1 bd d9 95 2b 3e
       -0.03133828 -0.10038114 -0.078613564 0.16756381
0001e0 60 af de 3c c5 7f 7b bd 17 85 fa 3d b4 a2 ed 3c
       0.027183235 -0.061401147 0.12232416 0.029008247
0001f0 7c 21 7c 3d cb 86 b3 3d 83 57 d3 bb 9a ac fc 3d
       0.06155537 0.08765944 -0.006449641 0.12337609
000200 06 49 bf 3d e6 02 33 be 15 be 24 be af a1 92 3e
       0.093401 -0.17481574 -0.16088136 0.2863898
000210 31 2c c8 3d 3a d0 55 38 69 a4 a9 3d f5 c2 35 be
       0.09774054 5.0977083e-05 0.08283312 -0.17750151
000220 ce 46 68 bd b5 1c 2a bc 71 1d a6 bc b8 99 aa bd
       -0.05670815 -0.010382821 -0.02027771 -0.08330101
000230 f6 59 a8 bc c3 19 dd 3d c8 0c 28 bc d7 b0 2e 3d
       -0.02055071 0.10795929 -0.010256954 0.042649116
000240 cc 37 c7 bd df 18 2e 3e 39 24 af 3d 60 81 68 bd
       -0.09727439 0.17001675 0.08551831 -0.056764007
000250 a3 f2 53 be 6b 17 b6 3d e7 15 8f be b3 4f 71 be
       -0.20698027 0.088911854 -0.27946398 -0.23565559
000260 b6 4b ac 3d a6 2e f1 bd 51 cc 4c 3e d3 18 b1 3c
       0.08412878 -0.117764756 0.19999816 0.021618282
000270 17 89 1f bd 09 f6 f2 bd b3 21 f8 3d 12 58 93 be
       -0.0389491 -0.11863334 0.121158026 -0.2877813
000280 40 e7 02 be 19 c0 11 3e 51 00 06 be 0f 66 11 be
       -0.12783527 0.14233436 -0.13086058 -0.14199089
000290 54 a3 0e 3e 03 13 f3 3d 16 25 b6 3d 8e 82 04 3e
       0.13929492 0.118688606 0.08893792 0.12940428
0002a0 83 b3 16 3d e6 c1 6c 3d 64 84 57 bd 49 ed ef bd
       0.03679229 0.057802103 -0.052616492 -0.117151804
0002b0 8e e3 9c 3d 61 45 f0 3c c3 12 d3 bc bb 6f 1e be
       0.0766059 0.029329957 -0.025765782 -0.1547231
0002c0 d6 a3 6b bc 98 d5 28 3e 19 48 b1 3d df f7 32 3d
       -0.014382323 0.1648773 0.0865633 0.04369342
0002d0 c7 e6 eb bd 06 aa 4a be d8 db f4 3d 41 20 8f 3d
       -0.11518627 -0.19791421 0.11955994 0.06988574
0002e0 9c 5b 8e bd f9 c7 63 bd 84 83 52 3d a6 82 ed 3c
       -0.06951067 -0.05561063 0.051394954 0.028992962
0002f0 73 d6 13 3e c9 e9 0a be 0c fb 13 be 26 d7 3f 3e
       0.14437275 -0.13565744 -0.14451236 0.18734416
000300 40 e6 50 3d 42 53 95 bd 35 31 11 3d 7c d5 dd 3d
       0.051000834 -0.07291271 0.035447318 0.108317345
000310 72 27 e8 3d 2f a1 ae 3d 9c ea 83 bd d6 10 05 be
       0.113356486 0.08526837 -0.064412326 -0.12994704
000320 70 a2 99 bd 4c 4d 3a bc ac 56 a5 bd 5e 08 3d be
       -0.075016856 -0.011370968 -0.08073172 -0.18460223
000330 f2 11 df 3c df 7c 2e 3d 99 19 10 bb 19 86 de bd
       0.027230237 0.042599555 -0.0021987914 -0.10865421
000340 33 6b ce 3c 66 58 e7 bc 97 09 f0 bd 3d fb 8d be
       0.025197601 -0.028240394 -0.11720579 -0.27730742
000350 c9 93 60 be 5e 9e 66 bd 24 77 11 bc a4 4f 49 be
       -0.21931376 -0.056303374 -0.008878503 -0.19659287
000360 42 6a 5b be 3e 75 d3 bd 72 28 9b be 7f 13 41 be
       -0.21427253 -0.103250965 -0.30304295 -0.18855093
000370 65 a5 d4 bd 90 39 47 be 70 ab 4e be d0 49 1b be
       -0.10383109 -0.19455552 -0.20182586 -0.15164876
000380 fc cc 8f be 07 73 6c 3c f0 77 c9 bc 5f c1 3c be
       -0.28086078 0.0144317215 -0.024593323 -0.1843314
000390 00 e1 df bd 5b d3 2e be 2b a6 6e be 1f 25 33 bd
       -0.10931587 -0.17072813 -0.23305576 -0.043736573
0003a0 96 5f f7 bd 70 a8 31 be 4c 7a 48 3d a1 3d 75 3e
       -0.120787784 -0.1734941 0.048944756 0.23949291
0003b0 14 1d 84 3e a3 44 cf bd 83 a6 c4 3c b2 35 bf 3e
       0.25803435 -0.10120513 0.02400518 0.37345654
0003c0 55 f9 26 bd c7 c7 7d be 3f fa 54 3d e8 bd 2c 3d
       -0.040765125 -0.2478324 0.051996466 0.042173296
0003d0 e1 3a ca bc 67 8c 80 be 86 c6 94 3c 92 e8 c1 bd
       -0.024686279 -0.25107118 0.01816107 -0.094681874
0003e0 11 9d 48 3d f2 39 55 be 87 16 4e be 98 b8 76 bd
       0.048977915 -0.20822886 -0.20125781 -0.060234636
0003f0 31 fd 80 3c 8c a5 07 3e c3 19 f2 bd 15 c9 de bd
       0.015745731 0.13246745 -0.1182132 -0.10878197

layer2.0.bias f4 [64]
000000 42 87 b0 bd ec 2b 8f bc f7 39 4a bd 64 49 0c be
       -0.086195484 -0.017476998 -0.049371686 -0.13699871
000010 f9 da 40 bd 60 9e 06 be 1d 3a 9d bd 86 01 39 bd
       -0.04708383 -0.13146353 -0.076771 -0.04516747
000020 ca 00 82 bd ae f4 8b bd dd 92 0c bd 09 20 7c bd
       -0.06347807 -0.06833778 -0.034319747 -0.06155399
000030 6c 3f 95 3c 6a 65 8a bd c9 d6 0b be 77 e0 2c bd
       0.018218718 -0.067576244 -0.13656153 -0.042206254
000040 e1 4a 36 bd 4d 89 fc bd 41 12 bb bd dd 4c 5c 3d
       -0.044505004 -0.123308755 -0.09134341 0.05378424
000050 85 4b 8d bd 33 53 bf bd 40 ff 56 bc a5 ab b9 bd
       -0.0689917 -0.09342041 -0.01312238 -0.09065942
000060 a0 5e 8b bd 47 a5 f2 3c 4a 72 b5 bd 00 02 4d 3d
       -0.06805158 0.029619826 -0.088596895 0.050050735
000070 26 2e a9 bd 43 32 2d 3c 03 35 20 bd 32 a6 88 bd
       -0.08260755 0.010571065 -0.039113056 -0.06672324
000080 2b 43 db 3c de 64 27 be 02 4c 39 bd 52 b0 a9 bd
       0.026765427 -0.16347072 -0.045238502 -0.082855836
000090 f8 09 1d be a3 d4 17 be 16 9f c1 bd 9c 37 cd bb
       -0.15335834 -0.14827208 -0.09454171 -0.0062627327
0000a0 fe cc 13 be fc 32 b1 bd 0d 45 22 3d 8c cb e2 bc
       -0.14433667 -0.086523026 0.039616633 -0.02768495
0000b0 31 60 18 be ee 66 00 3d 48 33 60 bd 1f 22 de bc
       -0.14880444 0.03134816 -0.054736406 -0.02711588
0000c0 ff fc b1 bd 04 46 64 bc 95 a6 2d bd b9 60 0d bc
       -0.08690833 -0.013932709 -0.042395193 -0.0086290175
0000d0 df d4 a1 bd 40 85 1a bd 88 ad ad bc be 82 1a be
       -0.0790193 -0.037724733 -0.02120091 -0.15088937
0000e0 ee 2b 7b bd ec 7c 93 bd 61 bd 08 bc 5c db 19 bd
       -0.06132119 -0.07201561 -0.008345933 -0.037562713
0000f0 81 f3 b7 bd 43 9c 9d bc cf 77 9e bc 8e 20 0f bd
       -0.089819916 -0.01923955 -0.019344239 -0.034943156

fc.weight f4 [10, 3136]
000000 68 bf 41 bd 2f 1e 05 bd 89 ec 70 3c 4b 55 e3 3d
       -0.04730168 -0.03249949 0.014704832 0.11100253
000010 ee 62 a6 bc a0 8c 9a bc 19 e0 3b bd d2 29 af 3d
       -0.020310845 -0.018865883 -0.045868013 0.085528985
000020 64 86 8b 3b d8 b0 d0 bb c2 de 00 3d e0 bd ee bd
       0.004257964 -0.0063687377 0.03146244 -0.116573095
000030 77 2d 48 3d 06 52 eb 3c af 12 14 3d 96 58 09 3e
       0.048871484 0.028725635 0.03615063 0.13412699
000040 36 46 ab bd aa 66 47 be 78 3b 9a 3d 8b 79 a6 3d
       -0.08363001 -0.19472757 0.07530874 0.08128651
000050 6f fe 14 3d d7 8d 30 3e 8b ac 09 bd 55 6a 5e bd
       0.03637546 0.17241608 -0.033611815 -0.054300625
000060 ae fb 04 3d 6d d5 91 3b 0a 40 4d 3e 29 00 fa bd
       0.032466583 0.004450491 0.2004396 -0.12207062
000070 ca 37 9c 3d d6 05 ca bc 85 d9 6d bd 34 10 51 bd
       0.076278284 -0.024660986 -0.05806877 -0.051040843
000080 be 3f 1a 3e fc 7f 61 3e 0c 24 6b 3c 8f 35 9a bc
       0.15063378 0.22021478 0.014351856 -0.018824367
000090 95 b5 2e bd 03 50 b8 3b 96 5e fa bd e8 49 95 3d
       -0.04265364 0.0056247725 -0.12225072 0.07289487
0000a0 7b 38 31 be 07 04 69 3b 80 8d 6a bd 12 fb 8f 3d
       -0.17306702 0.003555538 -0.05726385 0.0703031
0000b0 34 40 20 3e 7c 11 c6 bd ab eb de bd 8f 89 99 bc
       0.15649492 -0.09671304 -0.10884794 -0.01874235
0000c0 7a 5e d3 bc fa 22 34 3d 7d 76 e3 bc 77 06 02 3c
       -0.025801886 0.04397867 -0.02776646 0.007936112
0000d0 33 f7 1e 3c c6 ed df 3b e5 5e 75 bd 94 50 7b 3d
       0.009702492 0.0068337647 -0.05990495 0.061356142
0000e0 e0 6d b3 3d 44 8f b8 bd 7d 0c 81 bd 2e fc 06 3a
       0.08761191 -0.09011701 -0.0630121 0.0005149272
0000f0 f9 36 f6 bd ae e9 fb bd fa 4e d7 3b 60 1e c1 3d
       -0.12022204 -0.1230043 0.006570694 0.09429622
000100 7b 37 eb 3b c3 5c 17 3e df 4a 70 bd 8f 52 dd bd
       0.0071782446 0.1478148 -0.058665153 -0.108067624
000110 66 dd 10 be e6 80 42 3d 0a 0f 9f bc 41 bc 53 3d
       -0.14146957 0.04748621 -0.01941635 0.051693205
000120 88 cb 5e 3c a1 9f 9b 3d 0e 60 0d 3e 22 2e 2a bd
       0.01359833 0.07598806 0.13806173 -0.041547902
000130 38 ea 55 3c a5 63 28 bd e4 70 df bd 0f a1 93 3c
       0.01305633 -0.041110653 -0.10910204 0.018021135
000140 23 d8 0b 3e cd 67 bf 3d f9 72 06 bc 97 b7 3e 3d
       0.13656668 0.0934597 -0.008206123 0.046561804
000150 4d f9 e0 bd cb fd 81 be 9d 05 3c be 89 82 2d bd
       -0.1098505 -0.2538894 -0.18361516 -0.042360816
000160 6b de 26 3d 55 c2 e5 bb 73 ef 06 bd 4c cf 10 bd
       0.040739458 -0.0070116916 -0.0329432 -0.035353944
000170 10 7d 35 bd 60 c0 a3 bd 56 60 6e be 44 5f 07 bd
       -0.044308722 -0.07995677 -0.23278937 -0.033049837
000180 88 cc 71 bd 4b 90 4c bb f6 9d 90 bc 61 ee ba 3b
       -0.059032947 -0.0031213935 -0.017653447 0.0057046865
000190 02 cb 84 3b 9c ac df 3c cc 7b ab bd 96 77 8b bd
       0.0040525207 0.027303986 -0.08373222 -0.068099186
0001a0 ef 7d dd bc 9a 91 e7 3b 29 7d ce bc 23 c3 fa bd
       -0.027037589 0.0070669176 -0.025206165 -0.122442506
0001b0 33 ae e7 3d c7 a4 99 bd 7b bd 79 bd 0e 47 7d 3d
       0.11312523 -0.07502132 -0.06097172 0.06183534
0001c0 7a 32 b9 bc 70 f7 1d bb 5f 6c 03 3e ae 27 70 bd
       -0.022607077 -0.0024103783 0.12834309 -0.05863159
0001d0 54 b8 b5 bc 2a 35 a6 3d ba a5 b6 3c 2a 4f 31 3d
       -0.022182621 0.08115609 0.022295821 0.043288387
0001e0 96 80 1d bd 0e e2 ac 3d a4 ca 58 bd 2f aa 0d be
       -0.038452707 0.08441554 -0.05292763 -0.13834451
0001f0 16 0d c4 3d db c8 55 3b 7c ab b1 3d 41 c0 71 3b
       0.095728084 0.003262094 0.08675286 0.0036888274
000200 5e cc 59 3c 98 c5 52 be 7e 7c 4e 3d ef 42 10 3d
       0.013293354 -0.20583189 0.050411694 0.035220083
000210 4d 23 2e 3d a4 ff 0e 3d 52 05 e4 bb 9b ba 87 bd
       0.042514134 0.034911767 -0.006958642 -0.06627389
000220 f6 84 87 bd 12 29 12 3d 97 23 37 3c e7 5e c7 bc
       -0.06617157 0.0356837 0.011177919 -0.024337245
000230 2b c3 6e bd 84 c9 c5 3c d2 be 5a bd 9b b6 89 bd
       -0.058291595 0.024143942 -0.053404637 -0.06724282
000240 ff 36 05 bd ce 7b 7c bc b8 47 9b 3c 93 8c fd bc
       -0.03252315 -0.015410377 0.018955097 -0.03095082
000250 ef 6d 28 3d f2 16 13 3c 60 d7 14 3c 29 1a 32 3c
       0.041120466 0.008977639 0.0090845525 0.010870495
000260 17 3f e7 bb ec 80 20 bd 65 d1 6b 3c 74 d1 8d bc
       -0.0070570814 -0.03918545 0.014393185 -0.01731179
000270 c4 62 40 3c aa 91 2b 3d c2 8c 18 3e 5c a1 33 3e
       0.011742298 0.041886963 0.14897445 0.17542022
000280 4f ee b7 3d be c9 e1 3d a7 38 3c bd 04 05 b1 bd
       0.08981001 0.110248074 -0.045952465 -0.08643535
000290 a6 c0 31 bc 11 27 a0 3b 8a 4f f9 3a 1c 6f a0 3d
       -0.010849154 0.0048874696 0.0019020897 0.078336924
0002a0 5c 18 2e bd 53 47 16 be 6b 6b d6 3c 1f 2d d4 3c
       -0.0425037 -0.14675646 0.026174268 0.025900422
0002b0 28 44 27 be 9b 50 52 3c 6c 7a d2 3d f0 c4 8e 3c
       -0.16334593 0.012836601 0.10277256 0.017427891
0002c0 48 fb 23 bc 7c 31 ce bc cf 3a 28 bd a8 e3 3b be
       -0.010008641 -0.02517008 -0.04107171 -0.18348563
0002d0 f4 92 aa bd b1 9c 48 bc 70 01 f9 bc 4c 0b ba 3d
       -0.0832881 -0.012244389 -0.030396193 0.09084186
0002e0 08 fa fb 3d 80 0c 93 bd 75 dc 8b be 1a c9 35 be
       0.12303549 -0.071801186 -0.27316633 -0.17752495
0002f0 d9 fd af bc 2d 1e 18 3c 68 20 5e bc 03 ae 8b ba
       -0.021483349 0.009284538 -0.013557531 -0.0010656718
000300 90 fb c5 3d c0 1d 3f be 16 7c 80 bc 69 c8 f3 bd
       0.09667122 -0.18663692 -0.015684169 -0.119034596
000310 32 d3 d1 bd 44 c8 0e be 9d 28 03 be 8d 93 83 3d
       -0.102453604 -0.13943583 -0.12808461 0.064246275
000320 d3 b9 71 3d cf be 2f 3d da 15 be bc b8 81 8b bd
       0.059015106 0.04290658 -0.023203779 -0.06811851
000330 9a 60 aa bd 3d 8f 3f be be a0 85 bc b4 f7 80 bd
       -0.083192065 -0.18706985 -0.016312 -0.062972456
000340 9d c8 25 bd e2 a9 9f bd f6 5d 02 3d 7d 22 cc 3c
       -0.040474523 -0.077960745 0.03182789 0.024918789
000350 4f 33 7c bd 8d 91 98 3d 7f fb 00 3e 56 f2 8a 3d
       -0.06157237 0.074496366 0.12595938 0.06784503
000360 48 09 d0 bd 34 78 03 bd 76 31 ae 3d ae ca 58 3d
       -0.1015802 -0.032097057 0.08505528 0.052927665
000370 75 7d a7 ba b8 73 7d 3b e0 09 00 3e 78 84 a7 bd
       -0.0012778478 0.003867371 0.12503767 -0.08179563
000380 18 50 ad 3d ef 2e bf 3d 9b 43 81 3d 0b be a6 3d
       0.08462542 0.09335124 0.06311723 0.081417166
000390 6c cf 3e 3d e7 3e a1 bc 73 60 51 be 9a 0d e6 3d
       0.04658453 -0.019683314 -0.20446949 0.11233063
0003a0 de 0d 4d bd f8 16 d9 3d a9 7d 33 3e cf a7 b4 be
       -0.050062053 0.10600084 0.17528404 -0.35284278
0003b0 d1 51 bd be 47 f2 81 be 4a 59 e9 3c 57 cf 25 bd
       -0.36976483 -0.25380155 0.02848496 -0.040480938
0003c0 88 d6 fd 3d d0 32 9f 3b 27 7a 62 be 0f 99 46 be
       0.12394434 0.0048583522 -0.2211691 -0.19394325
0003d0 78 e5 ae bd 75 d1 16 3b 32 a9 02 bc b7 39 c4 bd
       -0.085398614 0.002301303 -0.00797491 -0.09581321
0003e0 a0 e3 a0 3b 25 35 17 be d2 a7 5e bc 61 7c 34 3d
       0.0049099475 -0.14766367 -0.013589816 0.04406393
0003f0 f2 5f 95 bd 7c 78 5d bd dc 4f 80 3c 93 f9 06 bb
       -0.07293691 -0.05406998 0.01566308 -0.0020595535

fc.bias f4 [10]
000000 ab f2 6a 3d 52 58 50 3d 1b 96 cb 3c 21 0d ea bc
       0.057360332 0.05086548 0.02485185 -0.028570713
000010 af a9 2b bd b8 c4 2f 3c 21 90 4d bb ec 29 a1 bc
       -0.04190987 0.010728054 -0.0031366425 -0.01967331
000020 3a 7c 67 bc a4 cf 57 3b
       -0.014128739 0.003293016
